…
2022-12-16 23:50:00.252 | DEBUG    | training:train:170 - ### [Epoch 39 - 969.31 sec]: train loss reco 3.449 kl 2.225, val loss reco 3.504 kl 2.222 (mean / batch) ###
Model: "encoder"
__________________________________________________________________________________________________
Layer (type)                    Output Shape         Param #     Connected to                     
==================================================================================================
encoder_input (InputLayer)      [(None, 100, 3)]     0                                            
__________________________________________________________________________________________________
Std_Normalize (StdNormalization (None, 100, 3)       0           encoder_input[0][0]              
__________________________________________________________________________________________________
lambda (Lambda)                 (None, 100, 3, 1)    0           Std_Normalize[0][0]              
__________________________________________________________________________________________________
conv2d (Conv2D)                 (None, 100, 1, 12)   48          lambda[0][0]                     
__________________________________________________________________________________________________
lambda_1 (Lambda)               (None, 100, 12)      0           conv2d[0][0]                     
__________________________________________________________________________________________________
conv1d (Conv1D)                 (None, 98, 16)       592         lambda_1[0][0]                   
__________________________________________________________________________________________________
conv1d_1 (Conv1D)               (None, 96, 20)       980         conv1d[0][0]                     
__________________________________________________________________________________________________
average_pooling1d (AveragePooli (None, 48, 20)       0           conv1d_1[0][0]                   
__________________________________________________________________________________________________
flatten (Flatten)               (None, 960)          0           average_pooling1d[0][0]          
__________________________________________________________________________________________________
dense (Dense)                   (None, 204)          196044      flatten[0][0]                    
__________________________________________________________________________________________________
dense_1 (Dense)                 (None, 48)           9840        dense[0][0]                      
__________________________________________________________________________________________________
z_mean (Dense)                  (None, 12)           588         dense_1[0][0]                    
__________________________________________________________________________________________________
z_log_var (Dense)               (None, 12)           588         dense_1[0][0]                    
__________________________________________________________________________________________________
sampling (Sampling)             (None, 12)           0           z_mean[0][0]                     
                                                                 z_log_var[0][0]                  
==================================================================================================
Total params: 208,680
Trainable params: 208,680
Non-trainable params: 0
__________________________________________________________________________________________________
Model: "decoder"
_________________________________________________________________
Layer (type)                 Output Shape              Param #   
=================================================================
z_sampling (InputLayer)      [(None, 12)]              0         
_________________________________________________________________
dense_2 (Dense)              (None, 48)                624       
_________________________________________________________________
dense_3 (Dense)              (None, 204)               9996      
_________________________________________________________________
dense_4 (Dense)              (None, 960)               196800    
_________________________________________________________________
reshape (Reshape)            (None, 48, 20)            0         
_________________________________________________________________
up_sampling1d (UpSampling1D) (None, 96, 20)            0         
_________________________________________________________________
conv1d_transpose (Conv1DTran (None, 98, 16)            976       
_________________________________________________________________
conv1d_transpose_1 (Conv1DTr (None, 100, 12)           588       
_________________________________________________________________
lambda_6 (Lambda)            (None, 100, 1, 12)        0         
_________________________________________________________________
conv_2d_transpose (Conv2DTra (None, 100, 3, 1)         37        
_________________________________________________________________
lambda_7 (Lambda)            (None, 100, 3)            0         
_________________________________________________________________
Un_Normalize (StdUnnormaliza (None, 100, 3)            0         
=================================================================
Total params: 209,021
Trainable params: 209,021
Non-trainable params: 0
_________________________________________________________________
Model: "vae"
_________________________________________________________________
Layer (type)                 Output Shape              Param #   
=================================================================
model_input (InputLayer)     [(None, 100, 3)]          0         
_________________________________________________________________
encoder (Functional)         [(None, 12), (None, 12),  208680    
_________________________________________________________________
decoder (Functional)         (None, 100, 3)            209021    
=================================================================
Total params: 417,701
Trainable params: 417,701
Non-trainable params: 0
_________________________________________________________________
>>> Launching Training
Saving model to /work/abal/CASE/VAE_models/run_12345

### [16.12 13:5:42] Start of epoch 0
Step 0: mean reco loss 6446.1582, KL loss 0.3039, Regul loss 3136.7920 (in one batch)
…
