…
95327 events read in 1 files in dir /data/t3home000/bmaier/CASE/VAE_results/events/run_50005/XToYYprimeTo4Q_MX3000_MY400_MYprime170_narrow_RECO
###################

training QR for quantile [0.05, 0.3, 0.5, 0.7, 0.9, 0.95]
###################
Model: "model"
_________________________________________________________________
Layer (type)                 Output Shape              Param #   
=================================================================
input_1 (InputLayer)         [(None, 1)]               0         
_________________________________________________________________
Std_Normalize (StdNormalizat (None, 1)                 0         
_________________________________________________________________
dense (Dense)                (None, 30)                60        
_________________________________________________________________
dense_1 (Dense)              (None, 30)                930       
_________________________________________________________________
dense_2 (Dense)              (None, 30)                930       
_________________________________________________________________
dense_3 (Dense)              (None, 30)                930       
_________________________________________________________________
dense_4 (Dense)              (None, 30)                930       
_________________________________________________________________
dense_5 (Dense)              (None, 6)                 186       
=================================================================
Total params: 3,966
Trainable params: 3,966
Non-trainable params: 0
_________________________________________________________________
Epoch 1/800
1918/1918 - 11s - loss: 0.4490 - val_loss: 0.4172
Epoch 2/800
1918/1918 - 2s - loss: 0.4189 - val_loss: 0.4204
Epoch 3/800
1918/1918 - 3s - loss: 0.4186 - val_loss: 0.4167
Epoch 4/800
…
